{"format": "graph-model", "generatedBy": "2.9.2", "convertedBy": "TensorFlow.js Converter v4.1.0", "signature": {"inputs": {"input_1": {"name": "input_1:0", "dtype": "DT_FLOAT", "tensorShape": {"dim": [{"size": "-1"}, {"size": "28"}, {"size": "28"}, {"size": "1"}]}}}, "outputs": {"output_1": {"name": "Identity:0", "dtype": "DT_FLOAT", "tensorShape": {"dim": [{"size": "-1"}, {"size": "10"}]}}}}, "modelTopology": {"node": [{"name": "StatefulPartitionedCall/my_model/conv2d/Conv2D/ReadVariableOp", "op": "Const", "attr": {"dtype": {"type": "DT_FLOAT"}, "value": {"tensor": {"dtype": "DT_FLOAT", "tensorShape": {"dim": [{"size": "3"}, {"size": "3"}, {"size": "1"}, {"size": "50"}]}}}}}, {"name": "StatefulPartitionedCall/my_model/conv2d/BiasAdd/ReadVariableOp", "op": "Const", "attr": {"value": {"tensor": {"dtype": "DT_FLOAT", "tensorShape": {"dim": [{"size": "50"}]}}}, "dtype": {"type": "DT_FLOAT"}}}, {"name": "StatefulPartitionedCall/my_model/conv2d_1/Conv2D/ReadVariableOp", "op": "Const", "attr": {"value": {"tensor": {"dtype": "DT_FLOAT", "tensorShape": {"dim": [{"size": "3"}, {"size": "3"}, {"size": "50"}, {"size": "50"}]}}}, "dtype": {"type": "DT_FLOAT"}}}, {"name": "StatefulPartitionedCall/my_model/conv2d_1/BiasAdd/ReadVariableOp", "op": "Const", "attr": {"value": {"tensor": {"dtype": "DT_FLOAT", "tensorShape": {"dim": [{"size": "50"}]}}}, "dtype": {"type": "DT_FLOAT"}}}, {"name": "StatefulPartitionedCall/my_model/conv2d_2/Conv2D/ReadVariableOp", "op": "Const", "attr": {"value": {"tensor": {"dtype": "DT_FLOAT", "tensorShape": {"dim": [{"size": "1"}, {"size": "1"}, {"size": "50"}, {"size": "25"}]}}}, "dtype": {"type": "DT_FLOAT"}}}, {"name": "StatefulPartitionedCall/my_model/conv2d_2/BiasAdd/ReadVariableOp", "op": "Const", "attr": {"value": {"tensor": {"dtype": "DT_FLOAT", "tensorShape": {"dim": [{"size": "25"}]}}}, "dtype": {"type": "DT_FLOAT"}}}, {"name": "StatefulPartitionedCall/my_model/conv2d_3/Conv2D/ReadVariableOp", "op": "Const", "attr": {"dtype": {"type": "DT_FLOAT"}, "value": {"tensor": {"dtype": "DT_FLOAT", "tensorShape": {"dim": [{"size": "3"}, {"size": "3"}, {"size": "25"}, {"size": "50"}]}}}}}, {"name": "StatefulPartitionedCall/my_model/conv2d_3/BiasAdd/ReadVariableOp", "op": "Const", "attr": {"dtype": {"type": "DT_FLOAT"}, "value": {"tensor": {"dtype": "DT_FLOAT", "tensorShape": {"dim": [{"size": "50"}]}}}}}, {"name": "StatefulPartitionedCall/my_model/conv2d_4/Conv2D/ReadVariableOp", "op": "Const", "attr": {"value": {"tensor": {"dtype": "DT_FLOAT", "tensorShape": {"dim": [{"size": "1"}, {"size": "1"}, {"size": "50"}, {"size": "25"}]}}}, "dtype": {"type": "DT_FLOAT"}}}, {"name": "StatefulPartitionedCall/my_model/conv2d_4/BiasAdd/ReadVariableOp", "op": "Const", "attr": {"dtype": {"type": "DT_FLOAT"}, "value": {"tensor": {"dtype": "DT_FLOAT", "tensorShape": {"dim": [{"size": "25"}]}}}}}, {"name": "StatefulPartitionedCall/my_model/conv2d_5/Conv2D/ReadVariableOp", "op": "Const", "attr": {"dtype": {"type": "DT_FLOAT"}, "value": {"tensor": {"dtype": "DT_FLOAT", "tensorShape": {"dim": [{"size": "3"}, {"size": "3"}, {"size": "25"}, {"size": "50"}]}}}}}, {"name": "StatefulPartitionedCall/my_model/conv2d_5/BiasAdd/ReadVariableOp", "op": "Const", "attr": {"value": {"tensor": {"dtype": "DT_FLOAT", "tensorShape": {"dim": [{"size": "50"}]}}}, "dtype": {"type": "DT_FLOAT"}}}, {"name": "StatefulPartitionedCall/my_model/conv2d_6/Conv2D/ReadVariableOp", "op": "Const", "attr": {"value": {"tensor": {"dtype": "DT_FLOAT", "tensorShape": {"dim": [{"size": "1"}, {"size": "1"}, {"size": "50"}, {"size": "25"}]}}}, "dtype": {"type": "DT_FLOAT"}}}, {"name": "StatefulPartitionedCall/my_model/conv2d_6/BiasAdd/ReadVariableOp", "op": "Const", "attr": {"value": {"tensor": {"dtype": "DT_FLOAT", "tensorShape": {"dim": [{"size": "25"}]}}}, "dtype": {"type": "DT_FLOAT"}}}, {"name": "StatefulPartitionedCall/my_model/conv2d_7/Conv2D/ReadVariableOp", "op": "Const", "attr": {"value": {"tensor": {"dtype": "DT_FLOAT", "tensorShape": {"dim": [{"size": "3"}, {"size": "3"}, {"size": "25"}, {"size": "50"}]}}}, "dtype": {"type": "DT_FLOAT"}}}, {"name": "StatefulPartitionedCall/my_model/conv2d_7/BiasAdd/ReadVariableOp", "op": "Const", "attr": {"dtype": {"type": "DT_FLOAT"}, "value": {"tensor": {"dtype": "DT_FLOAT", "tensorShape": {"dim": [{"size": "50"}]}}}}}, {"name": "StatefulPartitionedCall/my_model/conv2d_8/Conv2D/ReadVariableOp", "op": "Const", "attr": {"dtype": {"type": "DT_FLOAT"}, "value": {"tensor": {"dtype": "DT_FLOAT", "tensorShape": {"dim": [{"size": "1"}, {"size": "1"}, {"size": "50"}, {"size": "25"}]}}}}}, {"name": "StatefulPartitionedCall/my_model/conv2d_8/BiasAdd/ReadVariableOp", "op": "Const", "attr": {"dtype": {"type": "DT_FLOAT"}, "value": {"tensor": {"dtype": "DT_FLOAT", "tensorShape": {"dim": [{"size": "25"}]}}}}}, {"name": "StatefulPartitionedCall/my_model/flatten/Const", "op": "Const", "attr": {"dtype": {"type": "DT_INT32"}, "value": {"tensor": {"dtype": "DT_INT32", "tensorShape": {"dim": [{"size": "2"}]}}}}}, {"name": "StatefulPartitionedCall/my_model/dense/MatMul/ReadVariableOp", "op": "Const", "attr": {"dtype": {"type": "DT_FLOAT"}, "value": {"tensor": {"dtype": "DT_FLOAT", "tensorShape": {"dim": [{"size": "1225"}, {"size": "100"}]}}}}}, {"name": "StatefulPartitionedCall/my_model/dense/BiasAdd/ReadVariableOp", "op": "Const", "attr": {"value": {"tensor": {"dtype": "DT_FLOAT", "tensorShape": {"dim": [{"size": "100"}]}}}, "dtype": {"type": "DT_FLOAT"}}}, {"name": "StatefulPartitionedCall/my_model/dense_1/MatMul/ReadVariableOp", "op": "Const", "attr": {"value": {"tensor": {"dtype": "DT_FLOAT", "tensorShape": {"dim": [{"size": "100"}, {"size": "10"}]}}}, "dtype": {"type": "DT_FLOAT"}}}, {"name": "StatefulPartitionedCall/my_model/dense_1/BiasAdd/ReadVariableOp", "op": "Const", "attr": {"dtype": {"type": "DT_FLOAT"}, "value": {"tensor": {"dtype": "DT_FLOAT", "tensorShape": {"dim": [{"size": "10"}]}}}}}, {"name": "input_1", "op": "Placeholder", "attr": {"shape": {"shape": {"dim": [{"size": "-1"}, {"size": "28"}, {"size": "28"}, {"size": "1"}]}}, "dtype": {"type": "DT_FLOAT"}}}, {"name": "StatefulPartitionedCall/my_model/batch_normalization_2/FusedBatchNormV3/Offset", "op": "Const", "attr": {"dtype": {"type": "DT_FLOAT"}, "value": {"tensor": {"dtype": "DT_FLOAT", "tensorShape": {"dim": [{"size": "25"}]}}}}}, {"name": "StatefulPartitionedCall/my_model/batch_normalization_1/FusedBatchNormV3/Scaled", "op": "Const", "attr": {"value": {"tensor": {"dtype": "DT_FLOAT", "tensorShape": {"dim": [{"size": "25"}]}}}, "dtype": {"type": "DT_FLOAT"}}}, {"name": "StatefulPartitionedCall/my_model/batch_normalization_1/FusedBatchNormV3/Offset", "op": "Const", "attr": {"value": {"tensor": {"dtype": "DT_FLOAT", "tensorShape": {"dim": [{"size": "25"}]}}}, "dtype": {"type": "DT_FLOAT"}}}, {"name": "StatefulPartitionedCall/my_model/batch_normalization/FusedBatchNormV3/Scaled", "op": "Const", "attr": {"dtype": {"type": "DT_FLOAT"}, "value": {"tensor": {"dtype": "DT_FLOAT", "tensorShape": {"dim": [{"size": "50"}]}}}}}, {"name": "StatefulPartitionedCall/my_model/batch_normalization/FusedBatchNormV3/Offset", "op": "Const", "attr": {"dtype": {"type": "DT_FLOAT"}, "value": {"tensor": {"dtype": "DT_FLOAT", "tensorShape": {"dim": [{"size": "50"}]}}}}}, {"name": "StatefulPartitionedCall/my_model/batch_normalization_4/FusedBatchNormV3/Scaled", "op": "Const", "attr": {"value": {"tensor": {"dtype": "DT_FLOAT", "tensorShape": {"dim": [{"size": "25"}]}}}, "dtype": {"type": "DT_FLOAT"}}}, {"name": "StatefulPartitionedCall/my_model/batch_normalization_4/FusedBatchNormV3/Offset", "op": "Const", "attr": {"dtype": {"type": "DT_FLOAT"}, "value": {"tensor": {"dtype": "DT_FLOAT", "tensorShape": {"dim": [{"size": "25"}]}}}}}, {"name": "StatefulPartitionedCall/my_model/batch_normalization_3/FusedBatchNormV3/Scaled", "op": "Const", "attr": {"value": {"tensor": {"dtype": "DT_FLOAT", "tensorShape": {"dim": [{"size": "25"}]}}}, "dtype": {"type": "DT_FLOAT"}}}, {"name": "StatefulPartitionedCall/my_model/batch_normalization_3/FusedBatchNormV3/Offset", "op": "Const", "attr": {"dtype": {"type": "DT_FLOAT"}, "value": {"tensor": {"dtype": "DT_FLOAT", "tensorShape": {"dim": [{"size": "25"}]}}}}}, {"name": "StatefulPartitionedCall/my_model/batch_normalization_2/FusedBatchNormV3/Scaled", "op": "Const", "attr": {"dtype": {"type": "DT_FLOAT"}, "value": {"tensor": {"dtype": "DT_FLOAT", "tensorShape": {"dim": [{"size": "25"}]}}}}}, {"name": "StatefulPartitionedCall/my_model/conv2d/BiasAdd", "op": "_FusedConv2D", "input": ["input_1", "StatefulPartitionedCall/my_model/conv2d/Conv2D/ReadVariableOp", "StatefulPartitionedCall/my_model/conv2d/BiasAdd/ReadVariableOp"], "device": "/device:CPU:0", "attr": {"use_cudnn_on_gpu": {"b": true}, "num_args": {"i": "1"}, "fused_ops": {"list": {"s": ["Qmlhc0FkZA=="]}}, "data_format": {"s": "TkhXQw=="}, "epsilon": {"f": 0.0}, "num_host_args": {"i": "0"}, "leakyrelu_alpha": {"f": 0.2}, "dilations": {"list": {"i": ["1", "1", "1", "1"]}}, "filter_format": {"s": "SFdJTw=="}, "TArgs": {"list": {"type": ["DT_FLOAT"]}}, "strides": {"list": {"i": ["1", "1", "1", "1"]}}, "T": {"type": "DT_FLOAT"}, "explicit_paddings": {"list": {}}, "padding": {"s": "U0FNRQ=="}}}, {"name": "StatefulPartitionedCall/my_model/conv2d/Softplus", "op": "Softplus", "input": ["StatefulPartitionedCall/my_model/conv2d/BiasAdd"], "attr": {"T": {"type": "DT_FLOAT"}}}, {"name": "StatefulPartitionedCall/my_model/conv2d/mul", "op": "Mul", "input": ["StatefulPartitionedCall/my_model/batch_normalization/FusedBatchNormV3/Scaled", "StatefulPartitionedCall/my_model/conv2d/BiasAdd"], "attr": {"_grappler_ArithmeticOptimizer_MinimizeBroadcasts": {"b": true}, "T": {"type": "DT_FLOAT"}}}, {"name": "StatefulPartitionedCall/my_model/conv2d/Tanh", "op": "Tanh", "input": ["StatefulPartitionedCall/my_model/conv2d/Softplus"], "attr": {"T": {"type": "DT_FLOAT"}}}, {"name": "StatefulPartitionedCall/my_model/batch_normalization/FusedBatchNormV3/Mul", "op": "Mul", "input": ["StatefulPartitionedCall/my_model/conv2d/mul", "StatefulPartitionedCall/my_model/conv2d/Tanh"], "attr": {"T": {"type": "DT_FLOAT"}, "_grappler_ArithmeticOptimizer_MinimizeBroadcasts": {"b": true}}}, {"name": "StatefulPartitionedCall/my_model/batch_normalization/FusedBatchNormV3", "op": "Add", "input": ["StatefulPartitionedCall/my_model/batch_normalization/FusedBatchNormV3/Mul", "StatefulPartitionedCall/my_model/batch_normalization/FusedBatchNormV3/Offset"], "attr": {"T": {"type": "DT_FLOAT"}}}, {"name": "StatefulPartitionedCall/my_model/conv2d_1/Relu", "op": "_FusedConv2D", "input": ["StatefulPartitionedCall/my_model/batch_normalization/FusedBatchNormV3", "StatefulPartitionedCall/my_model/conv2d_1/Conv2D/ReadVariableOp", "StatefulPartitionedCall/my_model/conv2d_1/BiasAdd/ReadVariableOp"], "device": "/device:CPU:0", "attr": {"T": {"type": "DT_FLOAT"}, "data_format": {"s": "TkhXQw=="}, "epsilon": {"f": 0.0}, "fused_ops": {"list": {"s": ["Qmlhc0FkZA==", "UmVsdQ=="]}}, "use_cudnn_on_gpu": {"b": true}, "num_args": {"i": "1"}, "strides": {"list": {"i": ["1", "1", "1", "1"]}}, "leakyrelu_alpha": {"f": 0.2}, "dilations": {"list": {"i": ["1", "1", "1", "1"]}}, "padding": {"s": "U0FNRQ=="}, "TArgs": {"list": {"type": ["DT_FLOAT"]}}, "filter_format": {"s": "SFdJTw=="}, "explicit_paddings": {"list": {}}, "num_host_args": {"i": "0"}}}, {"name": "StatefulPartitionedCall/my_model/conv2d_2/BiasAdd", "op": "_FusedConv2D", "input": ["StatefulPartitionedCall/my_model/conv2d_1/Relu", "StatefulPartitionedCall/my_model/conv2d_2/Conv2D/ReadVariableOp", "StatefulPartitionedCall/my_model/conv2d_2/BiasAdd/ReadVariableOp"], "device": "/device:CPU:0", "attr": {"fused_ops": {"list": {"s": ["Qmlhc0FkZA=="]}}, "num_host_args": {"i": "0"}, "leakyrelu_alpha": {"f": 0.2}, "strides": {"list": {"i": ["1", "1", "1", "1"]}}, "use_cudnn_on_gpu": {"b": true}, "padding": {"s": "VkFMSUQ="}, "T": {"type": "DT_FLOAT"}, "explicit_paddings": {"list": {}}, "filter_format": {"s": "SFdJTw=="}, "epsilon": {"f": 0.0}, "num_args": {"i": "1"}, "data_format": {"s": "TkhXQw=="}, "TArgs": {"list": {"type": ["DT_FLOAT"]}}, "dilations": {"list": {"i": ["1", "1", "1", "1"]}}}}, {"name": "StatefulPartitionedCall/my_model/conv2d_2/Softplus", "op": "Softplus", "input": ["StatefulPartitionedCall/my_model/conv2d_2/BiasAdd"], "attr": {"T": {"type": "DT_FLOAT"}}}, {"name": "StatefulPartitionedCall/my_model/conv2d_2/mul", "op": "Mul", "input": ["StatefulPartitionedCall/my_model/batch_normalization_1/FusedBatchNormV3/Scaled", "StatefulPartitionedCall/my_model/conv2d_2/BiasAdd"], "attr": {"_grappler_ArithmeticOptimizer_MinimizeBroadcasts": {"b": true}, "T": {"type": "DT_FLOAT"}}}, {"name": "StatefulPartitionedCall/my_model/conv2d_2/Tanh", "op": "Tanh", "input": ["StatefulPartitionedCall/my_model/conv2d_2/Softplus"], "attr": {"T": {"type": "DT_FLOAT"}}}, {"name": "StatefulPartitionedCall/my_model/batch_normalization_1/FusedBatchNormV3/Mul", "op": "Mul", "input": ["StatefulPartitionedCall/my_model/conv2d_2/mul", "StatefulPartitionedCall/my_model/conv2d_2/Tanh"], "attr": {"_grappler_ArithmeticOptimizer_MinimizeBroadcasts": {"b": true}, "T": {"type": "DT_FLOAT"}}}, {"name": "StatefulPartitionedCall/my_model/batch_normalization_1/FusedBatchNormV3", "op": "Add", "input": ["StatefulPartitionedCall/my_model/batch_normalization_1/FusedBatchNormV3/Mul", "StatefulPartitionedCall/my_model/batch_normalization_1/FusedBatchNormV3/Offset"], "attr": {"T": {"type": "DT_FLOAT"}}}, {"name": "StatefulPartitionedCall/my_model/max_pooling2d/MaxPool", "op": "MaxPool", "input": ["StatefulPartitionedCall/my_model/batch_normalization_1/FusedBatchNormV3"], "attr": {"strides": {"list": {"i": ["1", "2", "2", "1"]}}, "T": {"type": "DT_FLOAT"}, "ksize": {"list": {"i": ["1", "2", "2", "1"]}}, "explicit_paddings": {"list": {}}, "padding": {"s": "VkFMSUQ="}, "data_format": {"s": "TkhXQw=="}}}, {"name": "StatefulPartitionedCall/my_model/conv2d_3/BiasAdd", "op": "_FusedConv2D", "input": ["StatefulPartitionedCall/my_model/max_pooling2d/MaxPool", "StatefulPartitionedCall/my_model/conv2d_3/Conv2D/ReadVariableOp", "StatefulPartitionedCall/my_model/conv2d_3/BiasAdd/ReadVariableOp"], "device": "/device:CPU:0", "attr": {"T": {"type": "DT_FLOAT"}, "num_host_args": {"i": "0"}, "epsilon": {"f": 0.0}, "data_format": {"s": "TkhXQw=="}, "TArgs": {"list": {"type": ["DT_FLOAT"]}}, "fused_ops": {"list": {"s": ["Qmlhc0FkZA=="]}}, "padding": {"s": "U0FNRQ=="}, "use_cudnn_on_gpu": {"b": true}, "strides": {"list": {"i": ["1", "1", "1", "1"]}}, "dilations": {"list": {"i": ["1", "1", "1", "1"]}}, "num_args": {"i": "1"}, "filter_format": {"s": "SFdJTw=="}, "leakyrelu_alpha": {"f": 0.2}, "explicit_paddings": {"list": {}}}}, {"name": "StatefulPartitionedCall/my_model/conv2d_3/Softplus", "op": "Softplus", "input": ["StatefulPartitionedCall/my_model/conv2d_3/BiasAdd"], "attr": {"T": {"type": "DT_FLOAT"}}}, {"name": "StatefulPartitionedCall/my_model/conv2d_3/Tanh", "op": "Tanh", "input": ["StatefulPartitionedCall/my_model/conv2d_3/Softplus"], "attr": {"T": {"type": "DT_FLOAT"}}}, {"name": "StatefulPartitionedCall/my_model/conv2d_3/mul", "op": "Mul", "input": ["StatefulPartitionedCall/my_model/conv2d_3/BiasAdd", "StatefulPartitionedCall/my_model/conv2d_3/Tanh"], "attr": {"T": {"type": "DT_FLOAT"}}}, {"name": "StatefulPartitionedCall/my_model/conv2d_4/Relu", "op": "_FusedConv2D", "input": ["StatefulPartitionedCall/my_model/conv2d_3/mul", "StatefulPartitionedCall/my_model/conv2d_4/Conv2D/ReadVariableOp", "StatefulPartitionedCall/my_model/conv2d_4/BiasAdd/ReadVariableOp"], "device": "/device:CPU:0", "attr": {"epsilon": {"f": 0.0}, "dilations": {"list": {"i": ["1", "1", "1", "1"]}}, "leakyrelu_alpha": {"f": 0.2}, "padding": {"s": "VkFMSUQ="}, "T": {"type": "DT_FLOAT"}, "num_args": {"i": "1"}, "fused_ops": {"list": {"s": ["Qmlhc0FkZA==", "UmVsdQ=="]}}, "explicit_paddings": {"list": {}}, "num_host_args": {"i": "0"}, "filter_format": {"s": "SFdJTw=="}, "strides": {"list": {"i": ["1", "1", "1", "1"]}}, "TArgs": {"list": {"type": ["DT_FLOAT"]}}, "use_cudnn_on_gpu": {"b": true}, "data_format": {"s": "TkhXQw=="}}}, {"name": "StatefulPartitionedCall/my_model/batch_normalization_2/FusedBatchNormV3/Mul", "op": "Mul", "input": ["StatefulPartitionedCall/my_model/conv2d_4/Relu", "StatefulPartitionedCall/my_model/batch_normalization_2/FusedBatchNormV3/Scaled"], "attr": {"T": {"type": "DT_FLOAT"}}}, {"name": "StatefulPartitionedCall/my_model/batch_normalization_2/FusedBatchNormV3", "op": "Add", "input": ["StatefulPartitionedCall/my_model/batch_normalization_2/FusedBatchNormV3/Mul", "StatefulPartitionedCall/my_model/batch_normalization_2/FusedBatchNormV3/Offset"], "attr": {"T": {"type": "DT_FLOAT"}}}, {"name": "StatefulPartitionedCall/my_model/conv2d_5/BiasAdd", "op": "_FusedConv2D", "input": ["StatefulPartitionedCall/my_model/batch_normalization_2/FusedBatchNormV3", "StatefulPartitionedCall/my_model/conv2d_5/Conv2D/ReadVariableOp", "StatefulPartitionedCall/my_model/conv2d_5/BiasAdd/ReadVariableOp"], "device": "/device:CPU:0", "attr": {"explicit_paddings": {"list": {}}, "dilations": {"list": {"i": ["1", "1", "1", "1"]}}, "num_args": {"i": "1"}, "TArgs": {"list": {"type": ["DT_FLOAT"]}}, "use_cudnn_on_gpu": {"b": true}, "padding": {"s": "U0FNRQ=="}, "data_format": {"s": "TkhXQw=="}, "num_host_args": {"i": "0"}, "T": {"type": "DT_FLOAT"}, "leakyrelu_alpha": {"f": 0.2}, "fused_ops": {"list": {"s": ["Qmlhc0FkZA=="]}}, "epsilon": {"f": 0.0}, "filter_format": {"s": "SFdJTw=="}, "strides": {"list": {"i": ["1", "1", "1", "1"]}}}}, {"name": "StatefulPartitionedCall/my_model/conv2d_5/Softplus", "op": "Softplus", "input": ["StatefulPartitionedCall/my_model/conv2d_5/BiasAdd"], "attr": {"T": {"type": "DT_FLOAT"}}}, {"name": "StatefulPartitionedCall/my_model/conv2d_5/Tanh", "op": "Tanh", "input": ["StatefulPartitionedCall/my_model/conv2d_5/Softplus"], "attr": {"T": {"type": "DT_FLOAT"}}}, {"name": "StatefulPartitionedCall/my_model/conv2d_5/mul", "op": "Mul", "input": ["StatefulPartitionedCall/my_model/conv2d_5/BiasAdd", "StatefulPartitionedCall/my_model/conv2d_5/Tanh"], "attr": {"T": {"type": "DT_FLOAT"}}}, {"name": "StatefulPartitionedCall/my_model/conv2d_6/Relu", "op": "_FusedConv2D", "input": ["StatefulPartitionedCall/my_model/conv2d_5/mul", "StatefulPartitionedCall/my_model/conv2d_6/Conv2D/ReadVariableOp", "StatefulPartitionedCall/my_model/conv2d_6/BiasAdd/ReadVariableOp"], "device": "/device:CPU:0", "attr": {"leakyrelu_alpha": {"f": 0.2}, "strides": {"list": {"i": ["1", "1", "1", "1"]}}, "filter_format": {"s": "SFdJTw=="}, "explicit_paddings": {"list": {}}, "dilations": {"list": {"i": ["1", "1", "1", "1"]}}, "fused_ops": {"list": {"s": ["Qmlhc0FkZA==", "UmVsdQ=="]}}, "data_format": {"s": "TkhXQw=="}, "num_args": {"i": "1"}, "epsilon": {"f": 0.0}, "num_host_args": {"i": "0"}, "TArgs": {"list": {"type": ["DT_FLOAT"]}}, "use_cudnn_on_gpu": {"b": true}, "T": {"type": "DT_FLOAT"}, "padding": {"s": "VkFMSUQ="}}}, {"name": "StatefulPartitionedCall/my_model/batch_normalization_3/FusedBatchNormV3/Mul", "op": "Mul", "input": ["StatefulPartitionedCall/my_model/conv2d_6/Relu", "StatefulPartitionedCall/my_model/batch_normalization_3/FusedBatchNormV3/Scaled"], "attr": {"T": {"type": "DT_FLOAT"}}}, {"name": "StatefulPartitionedCall/my_model/batch_normalization_3/FusedBatchNormV3", "op": "Add", "input": ["StatefulPartitionedCall/my_model/batch_normalization_3/FusedBatchNormV3/Mul", "StatefulPartitionedCall/my_model/batch_normalization_3/FusedBatchNormV3/Offset"], "attr": {"T": {"type": "DT_FLOAT"}}}, {"name": "StatefulPartitionedCall/my_model/conv2d_7/Relu", "op": "_FusedConv2D", "input": ["StatefulPartitionedCall/my_model/batch_normalization_3/FusedBatchNormV3", "StatefulPartitionedCall/my_model/conv2d_7/Conv2D/ReadVariableOp", "StatefulPartitionedCall/my_model/conv2d_7/BiasAdd/ReadVariableOp"], "device": "/device:CPU:0", "attr": {"leakyrelu_alpha": {"f": 0.2}, "filter_format": {"s": "SFdJTw=="}, "TArgs": {"list": {"type": ["DT_FLOAT"]}}, "padding": {"s": "U0FNRQ=="}, "strides": {"list": {"i": ["1", "1", "1", "1"]}}, "data_format": {"s": "TkhXQw=="}, "dilations": {"list": {"i": ["1", "1", "1", "1"]}}, "epsilon": {"f": 0.0}, "num_host_args": {"i": "0"}, "explicit_paddings": {"list": {}}, "fused_ops": {"list": {"s": ["Qmlhc0FkZA==", "UmVsdQ=="]}}, "num_args": {"i": "1"}, "T": {"type": "DT_FLOAT"}, "use_cudnn_on_gpu": {"b": true}}}, {"name": "StatefulPartitionedCall/my_model/conv2d_8/BiasAdd", "op": "_FusedConv2D", "input": ["StatefulPartitionedCall/my_model/conv2d_7/Relu", "StatefulPartitionedCall/my_model/conv2d_8/Conv2D/ReadVariableOp", "StatefulPartitionedCall/my_model/conv2d_8/BiasAdd/ReadVariableOp"], "device": "/device:CPU:0", "attr": {"num_host_args": {"i": "0"}, "data_format": {"s": "TkhXQw=="}, "explicit_paddings": {"list": {}}, "epsilon": {"f": 0.0}, "num_args": {"i": "1"}, "padding": {"s": "VkFMSUQ="}, "TArgs": {"list": {"type": ["DT_FLOAT"]}}, "leakyrelu_alpha": {"f": 0.2}, "T": {"type": "DT_FLOAT"}, "strides": {"list": {"i": ["1", "1", "1", "1"]}}, "use_cudnn_on_gpu": {"b": true}, "fused_ops": {"list": {"s": ["Qmlhc0FkZA=="]}}, "filter_format": {"s": "SFdJTw=="}, "dilations": {"list": {"i": ["1", "1", "1", "1"]}}}}, {"name": "StatefulPartitionedCall/my_model/conv2d_8/Softplus", "op": "Softplus", "input": ["StatefulPartitionedCall/my_model/conv2d_8/BiasAdd"], "attr": {"T": {"type": "DT_FLOAT"}}}, {"name": "StatefulPartitionedCall/my_model/conv2d_8/mul", "op": "Mul", "input": ["StatefulPartitionedCall/my_model/batch_normalization_4/FusedBatchNormV3/Scaled", "StatefulPartitionedCall/my_model/conv2d_8/BiasAdd"], "attr": {"T": {"type": "DT_FLOAT"}, "_grappler_ArithmeticOptimizer_MinimizeBroadcasts": {"b": true}}}, {"name": "StatefulPartitionedCall/my_model/conv2d_8/Tanh", "op": "Tanh", "input": ["StatefulPartitionedCall/my_model/conv2d_8/Softplus"], "attr": {"T": {"type": "DT_FLOAT"}}}, {"name": "StatefulPartitionedCall/my_model/batch_normalization_4/FusedBatchNormV3/Mul", "op": "Mul", "input": ["StatefulPartitionedCall/my_model/conv2d_8/mul", "StatefulPartitionedCall/my_model/conv2d_8/Tanh"], "attr": {"_grappler_ArithmeticOptimizer_MinimizeBroadcasts": {"b": true}, "T": {"type": "DT_FLOAT"}}}, {"name": "StatefulPartitionedCall/my_model/batch_normalization_4/FusedBatchNormV3", "op": "Add", "input": ["StatefulPartitionedCall/my_model/batch_normalization_4/FusedBatchNormV3/Mul", "StatefulPartitionedCall/my_model/batch_normalization_4/FusedBatchNormV3/Offset"], "attr": {"T": {"type": "DT_FLOAT"}}}, {"name": "StatefulPartitionedCall/my_model/max_pooling2d_1/MaxPool", "op": "MaxPool", "input": ["StatefulPartitionedCall/my_model/batch_normalization_4/FusedBatchNormV3"], "attr": {"strides": {"list": {"i": ["1", "2", "2", "1"]}}, "explicit_paddings": {"list": {}}, "padding": {"s": "VkFMSUQ="}, "data_format": {"s": "TkhXQw=="}, "T": {"type": "DT_FLOAT"}, "ksize": {"list": {"i": ["1", "2", "2", "1"]}}}}, {"name": "StatefulPartitionedCall/my_model/flatten/Reshape", "op": "Reshape", "input": ["StatefulPartitionedCall/my_model/max_pooling2d_1/MaxPool", "StatefulPartitionedCall/my_model/flatten/Const"], "attr": {"T": {"type": "DT_FLOAT"}, "Tshape": {"type": "DT_INT32"}}}, {"name": "StatefulPartitionedCall/my_model/dense/Relu", "op": "_FusedMatMul", "input": ["StatefulPartitionedCall/my_model/flatten/Reshape", "StatefulPartitionedCall/my_model/dense/MatMul/ReadVariableOp", "StatefulPartitionedCall/my_model/dense/BiasAdd/ReadVariableOp"], "device": "/device:CPU:0", "attr": {"num_args": {"i": "1"}, "transpose_a": {"b": false}, "T": {"type": "DT_FLOAT"}, "fused_ops": {"list": {"s": ["Qmlhc0FkZA==", "UmVsdQ=="]}}, "leakyrelu_alpha": {"f": 0.2}, "transpose_b": {"b": false}, "epsilon": {"f": 0.0}}}, {"name": "StatefulPartitionedCall/my_model/dense_1/BiasAdd", "op": "_FusedMatMul", "input": ["StatefulPartitionedCall/my_model/dense/Relu", "StatefulPartitionedCall/my_model/dense_1/MatMul/ReadVariableOp", "StatefulPartitionedCall/my_model/dense_1/BiasAdd/ReadVariableOp"], "device": "/device:CPU:0", "attr": {"leakyrelu_alpha": {"f": 0.2}, "epsilon": {"f": 0.0}, "num_args": {"i": "1"}, "transpose_b": {"b": false}, "T": {"type": "DT_FLOAT"}, "fused_ops": {"list": {"s": ["Qmlhc0FkZA=="]}}, "transpose_a": {"b": false}}}, {"name": "StatefulPartitionedCall/my_model/dense_1/Softmax", "op": "Softmax", "input": ["StatefulPartitionedCall/my_model/dense_1/BiasAdd"], "attr": {"T": {"type": "DT_FLOAT"}}}, {"name": "Identity", "op": "Identity", "input": ["StatefulPartitionedCall/my_model/dense_1/Softmax"], "attr": {"T": {"type": "DT_FLOAT"}}}], "library": {}, "versions": {"producer": 1286}}, "weightsManifest": [{"paths": ["group1-shard1of1.bin"], "weights": [{"name": "StatefulPartitionedCall/my_model/conv2d/Conv2D/ReadVariableOp", "shape": [3, 3, 1, 50], "dtype": "float32"}, {"name": "StatefulPartitionedCall/my_model/conv2d/BiasAdd/ReadVariableOp", "shape": [50], "dtype": "float32"}, {"name": "StatefulPartitionedCall/my_model/conv2d_1/Conv2D/ReadVariableOp", "shape": [3, 3, 50, 50], "dtype": "float32"}, {"name": "StatefulPartitionedCall/my_model/conv2d_1/BiasAdd/ReadVariableOp", "shape": [50], "dtype": "float32"}, {"name": "StatefulPartitionedCall/my_model/conv2d_2/Conv2D/ReadVariableOp", "shape": [1, 1, 50, 25], "dtype": "float32"}, {"name": "StatefulPartitionedCall/my_model/conv2d_2/BiasAdd/ReadVariableOp", "shape": [25], "dtype": "float32"}, {"name": "StatefulPartitionedCall/my_model/conv2d_3/Conv2D/ReadVariableOp", "shape": [3, 3, 25, 50], "dtype": "float32"}, {"name": "StatefulPartitionedCall/my_model/conv2d_3/BiasAdd/ReadVariableOp", "shape": [50], "dtype": "float32"}, {"name": "StatefulPartitionedCall/my_model/conv2d_4/Conv2D/ReadVariableOp", "shape": [1, 1, 50, 25], "dtype": "float32"}, {"name": "StatefulPartitionedCall/my_model/conv2d_4/BiasAdd/ReadVariableOp", "shape": [25], "dtype": "float32"}, {"name": "StatefulPartitionedCall/my_model/conv2d_5/Conv2D/ReadVariableOp", "shape": [3, 3, 25, 50], "dtype": "float32"}, {"name": "StatefulPartitionedCall/my_model/conv2d_5/BiasAdd/ReadVariableOp", "shape": [50], "dtype": "float32"}, {"name": "StatefulPartitionedCall/my_model/conv2d_6/Conv2D/ReadVariableOp", "shape": [1, 1, 50, 25], "dtype": "float32"}, {"name": "StatefulPartitionedCall/my_model/conv2d_6/BiasAdd/ReadVariableOp", "shape": [25], "dtype": "float32"}, {"name": "StatefulPartitionedCall/my_model/conv2d_7/Conv2D/ReadVariableOp", "shape": [3, 3, 25, 50], "dtype": "float32"}, {"name": "StatefulPartitionedCall/my_model/conv2d_7/BiasAdd/ReadVariableOp", "shape": [50], "dtype": "float32"}, {"name": "StatefulPartitionedCall/my_model/conv2d_8/Conv2D/ReadVariableOp", "shape": [1, 1, 50, 25], "dtype": "float32"}, {"name": "StatefulPartitionedCall/my_model/conv2d_8/BiasAdd/ReadVariableOp", "shape": [25], "dtype": "float32"}, {"name": "StatefulPartitionedCall/my_model/flatten/Const", "shape": [2], "dtype": "int32"}, {"name": "StatefulPartitionedCall/my_model/dense/MatMul/ReadVariableOp", "shape": [1225, 100], "dtype": "float32"}, {"name": "StatefulPartitionedCall/my_model/dense/BiasAdd/ReadVariableOp", "shape": [100], "dtype": "float32"}, {"name": "StatefulPartitionedCall/my_model/dense_1/MatMul/ReadVariableOp", "shape": [100, 10], "dtype": "float32"}, {"name": "StatefulPartitionedCall/my_model/dense_1/BiasAdd/ReadVariableOp", "shape": [10], "dtype": "float32"}, {"name": "StatefulPartitionedCall/my_model/batch_normalization_2/FusedBatchNormV3/Offset", "shape": [25], "dtype": "float32"}, {"name": "StatefulPartitionedCall/my_model/batch_normalization_1/FusedBatchNormV3/Scaled", "shape": [25], "dtype": "float32"}, {"name": "StatefulPartitionedCall/my_model/batch_normalization_1/FusedBatchNormV3/Offset", "shape": [25], "dtype": "float32"}, {"name": "StatefulPartitionedCall/my_model/batch_normalization/FusedBatchNormV3/Scaled", "shape": [50], "dtype": "float32"}, {"name": "StatefulPartitionedCall/my_model/batch_normalization/FusedBatchNormV3/Offset", "shape": [50], "dtype": "float32"}, {"name": "StatefulPartitionedCall/my_model/batch_normalization_4/FusedBatchNormV3/Scaled", "shape": [25], "dtype": "float32"}, {"name": "StatefulPartitionedCall/my_model/batch_normalization_4/FusedBatchNormV3/Offset", "shape": [25], "dtype": "float32"}, {"name": "StatefulPartitionedCall/my_model/batch_normalization_3/FusedBatchNormV3/Scaled", "shape": [25], "dtype": "float32"}, {"name": "StatefulPartitionedCall/my_model/batch_normalization_3/FusedBatchNormV3/Offset", "shape": [25], "dtype": "float32"}, {"name": "StatefulPartitionedCall/my_model/batch_normalization_2/FusedBatchNormV3/Scaled", "shape": [25], "dtype": "float32"}]}]}